final_exercise/model.pth (torch, 380328 bytes, 8 tensors)

weight f4 [32, 1, 3, 3]
0	0xbdafecb8	-0.085900724
1	0x3c02d2b7	0.007984809
2	0x3e9f5af4	0.3112408
3	0xbe50e83e	-0.20401093
4	0x3edd1409	0.43179348
5	0x3ec81b2e	0.39083236
6	0x3c3f9785	0.01169384
7	0x3e016dc5	0.1263953
8	0x3e8432fa	0.25820142
9	0x3ee7c13e	0.4526462
10	0xbe5b2b78	-0.21403301
11	0xbde746a9	-0.11292774
12	0x3ebbabd0	0.3665452
13	0x3e294837	0.16531454
14	0xbe969f42	-0.2941838
15	0x3dab90f7	0.08377259
16	0xbe8f5376	-0.27993363
17	0xbedef2e1	-0.43544677
18	0xbe3796ca	-0.17928615
19	0x3eb3ffe1	0.35156158
20	0xbe857526	-0.2606594
21	0x3e73641e	0.2376866
22	0x3d811b6a	0.06304057
23	0x3ed6f524	0.41983902
24	0xbe5ec8be	-0.21756265
25	0x3dfb33fc	0.122657746
26	0x3f0348b2	0.512828
27	0x3e25ef0c	0.1620447
28	0x3f08137e	0.5315474
29	0x3efe8307	0.4970934
30	0x3e9673d4	0.29385245
31	0x3e1f4c36	0.15556416
32	0x3ec01654	0.37517035
33	0x3ecf503a	0.40490896
34	0x3e54ba16	0.20774111
35	0x3ea6c4c0	0.32571983
36	0x3eb9c48c	0.36282766
37	0xbdaec2de	-0.08533262
38	0x3eea4722	0.45757395
39	0x3e5314ec	0.2061345
40	0xbcc798ec	-0.024364911
41	0x3e9c03c4	0.30471623
42	0x3de26dab	0.11056074
43	0x3ecbb258	0.39784503
44	0x3f145a60	0.579504
45	0x3e181aa4	0.14853913
46	0x3ed7e9d2	0.42170578
47	0xbde7444f	-0.11292326
48	0x3e64a2f7	0.22327791
49	0xbe79dcb8	-0.24400604
50	0x3ebf429a	0.373555
51	0xbdc5ba6d	-0.096546985
52	0xbdebf21b	-0.11520787
53	0xbea55805	-0.32293716
54	0x3e9d8495	0.30765215
55	0x3e153e9b	0.14574663
56	0x3ebe5b8a	0.37179214
57	0x3cd2a1f7	0.025711996
58	0x3edf84df	0.4365606
59	0xbce87e16	-0.028380435
60	0xbe9eea4d	-0.31038132
61	0xbe279b27	-0.1636778
62	0x3e7903cc	0.24317855
63	0x3ea97560	0.33097363
64	0xbd4f998c	-0.050683543
65	0xbe372310	-0.17884469
66	0x3ea2576a	0.31707317
67	0xbe8e75ca	-0.2782424
68	0xbea4931c	-0.32143486
69	0x3eb899b1	0.36054757
70	0xbd1f1f7d	-0.03884839
71	0xbe921d47	-0.28537962
72	0x3eb60597	0.3555114
73	0x3e31fcb9	0.17381562
74	0x3efb0450	0.49026728
75	0x3e458c12	0.19291714
76	0x3e01bcc4	0.12669665
77	0x3d2b4024	0.041809216
78	0xbde1fad0	-0.11034167
79	0x3e1d586b	0.1536576
80	0x3f0ca2ae	0.5493573
81	0x3ee185aa	0.4404729
82	0x3eced1df	0.40394494
83	0x3e5aca22	0.2136617
84	0xbbd185d7	-0.006394129
85	0x3e2e8c4d	0.17045708
86	0x3e17a564	0.14809185
87	0x3c7dd2b0	0.015492126
88	0x3e2be55f	0.16786717
89	0x3eb464c7	0.35233137
90	0xbe87cb60	-0.2652235
91	0xbe735381	-0.23762323
92	0x3edefd0c	0.43552434
93	0x3ed6a0c6	0.41919535
94	0x3ed1205e	0.40845007
95	0x3ea9c156	0.33155316
96	0x3e861ee7	0.26195452
97	0x3efcae4f	0.49351737
98	0x3d37449a	0.044743158
99	0xbe952b92	-0.29134804
100	0xbd96284d	-0.073319055
101	0x3ed1979b	0.40935978
102	0xbed8d2e6	-0.42348403
103	0x3dc91cae	0.09819923
104	0x3d4de456	0.050266586
105	0xbefbf628	-0.4921124
106	0x3e063692	0.13106754
107	0xbd31d353	-0.043414425
108	0xbd815be4	-0.06316355
109	0x3ee893f6	0.45425385
110	0xbe4c79c9	-0.19968332
111	0xbdd593fe	-0.10428618
112	0x3d8f1758	0.06986874
113	0x3ef0e619	0.4705055
114	0x3ebcbfaa	0.36864978
115	0x3ed8c28a	0.42335922
116	0x3f102113	0.5630047
117	0x3eea7239	0.4579027
118	0x3eec193a	0.46112996
119	0x3e850ff1	0.25988725
120	0x3e9627ea	0.29327327
121	0x3e899107	0.2686846
122	0x3f019f92	0.5063411
123	0x3ef25cc2	0.47336394
124	0x3cf789a4	0.030217
125	0x3dc4844f	0.09595548
126	0x3ee79eed	0.45238438
127	0x3ec1d640	0.37858772
128	0x3ef7bf4e	0.4838814
129	0x3e24f88f	0.16110443
130	0x3e0a2a54	0.1349271
131	0x3e711728	0.2354399
132	0xbe8a8fc4	-0.2706281
133	0x3e99de6a	0.300525
134	0xbe8ed692	-0.2789808
135	0xbe2e93ac	-0.1704852
136	0x3ee8a5f6	0.45439118
137	0x3dfdf873	0.124009036
138	0x3efdd55c	0.49576843
139	0x3ed1cd6f	0.40977046
140	0x3e8a5451	0.27017453
141	0x3f05b89b	0.5223481
142	0x3ef28201	0.4736481
143	0x3d765a14	0.0601445
144	0x3e5bd90f	0.2146952
145	0xbd87fd6d	-0.06640134
146	0xbe123e4a	-0.14281574
147	0xbdceb1a8	-0.10092479
148	0x3ce3615c	0.027756386
149	0xbe34b9ee	-0.17649052
150	0x3ebe8ee7	0.372184
151	0x3edb716c	0.42859972
152	0x3effd51d	0.4996728
153	0x3db23e2a	0.08703263
154	0xbbd3843d	-0.006454973
155	0xbd696c2a	-0.05698792
156	0xbe631462	-0.22175744
157	0x3e955bd1	0.29171613
158	0xbeb97e04	-0.36228955
159	0xbe97899d	-0.29597178
160	0xbec97ee7	-0.3935463
161	0xbed488ad	-0.41510525
162	0x3e419b02	0.18906787
163	0xbc80408d	-0.01565578
164	0xbe441de1	-0.19152023
165	0x3ec2d894	0.3805586
166	0xbe3fd04a	-0.187318
167	0xbee2ad3b	-0.4427279
168	0x3ee11245	0.4395925
169	0xbd92f669	-0.07175905
170	0xbe92ebbc	-0.28695476
171	0x3e83f256	0.25770825
172	0x3ea12755	0.3147532
173	0x3eca6ebb	0.39537606
174	0xbddc8a1b	-0.10768529
175	0xbe955e98	-0.29173732
176	0xbe14db0b	-0.14536683
177	0xbeac3e4b	-0.33641276
178	0xbec42892	-0.38312203
179	0x3d2924ea	0.04129497
180	0x3ed66483	0.4187356
181	0x3e8ffd85	0.28123108
182	0xba2b0cdf	-0.000652505
183	0x3e858503	0.26078042
184	0x3ec6c993	0.38825664
185	0xbcecab28	-0.028890207
186	0x3b024da0	0.0019882694
187	0x3e98a6e8	0.2981484
188	0x3c5e1e7a	0.013557071
189	0x3da26a7c	0.079304665
190	0x3ee29b28	0.44259
191	0xbe04553c	-0.1292314
192	0xbd71ac3b	-0.059002142
193	0x3ee83b28	0.45357633
194	0x3dc20e3b	0.094753705
195	0x3e3ad3ca	0.18244854
196	0x3d2f4f39	0.042800162
197	0x3ee3cc80	0.4449196
198	0xbe93479b	-0.28765568
199	0xbe1936af	-0.14962266
200	0x3ed41aa6	0.4142658
201	0x3ddec931	0.10878218
202	0x3d8d101e	0.0688784
203	0x3e700d70	0.23442626
204	0xbe42cd92	-0.19023731
205	0x3d5193c7	0.051166322
206	0x3efd33d7	0.49453613
207	0x3eb57978	0.35444236
208	0x3ede7af0	0.4345317
209	0x3e3340c1	0.1750517
210	0x3eb5cd67	0.35508272
211	0x3eb07895	0.34466997
212	0x3efd80dd	0.49512377
213	0x3dd069dd	0.10176442
214	0x3efba872	0.4915195
215	0xbcf4b5c1	-0.029871823
216	0x3eb18c49	0.34677342
217	0x3ecae375	0.3962666
218	0x3ef3b382	0.4759789
219	0xbd3145de	-0.04327952
220	0x3eb09e4a	0.34495765
221	0x3e00b859	0.12570323
222	0x3e80e239	0.25172594
223	0x3df88fd4	0.12136808
224	0x3eed7e09	0.4638522
225	0xbc6b08ca	-0.014345357
226	0x3ddb4761	0.10706974
227	0xbe0ff04c	-0.1405651
228	0xbd8ab44a	-0.06772669
229	0x3e2f7dc8	0.17137825
230	0x3e9fde5b	0.3122433
231	0xbe6e7b49	-0.23289217
232	0x3e6a0c30	0.22856212
233	0x3e8e7b30	0.2782836
234	0xbe451564	-0.19246441
235	0xbe992dd7	-0.29917786
236	0xbf0fe771	-0.56212527
237	0x3e57ebc5	0.21086033
238	0xbe707164	-0.23480755
239	0x3e68ab8d	0.22721691
240	0x3e4dcb22	0.2009702
241	0x3e37e2aa	0.17957559
242	0x3edde877	0.4334142
243	0xbcc0cdd9	-0.023535656
244	0xbe1aff40	-0.15136433
245	0xbe480525	-0.19533212
246	0x3ee00a9e	0.437581
247	0x3e01f6b7	0.1269177
248	0x3f04eecc	0.51926875
249	0x3ea10409	0.3144839
250	0x3f0d4933	0.5518982
251	0x3ed0175c	0.40642822
252	0xbe800ae8	-0.2500832
253	0xbe9ec33f	-0.31008336
254	0xbea28584	-0.3174249
255	0xbdc77710	-0.09739506

bias f4 [32]
0	0x3d1b95b4	0.037984565
1	0x3e83c6d5	0.25737634
2	0x39f0756b	0.0004586385
3	0x39b21649	0.0003396741
4	0x3e543655	0.20723851
5	0x3e59369f	0.21212243
6	0xbe1cc602	-0.15309909
7	0x3ea71f02	0.32640845
8	0x3d70a5e8	0.05875197
9	0x3e4641a1	0.19360973
10	0x3e1b1e47	0.15148269
11	0x3e997b5e	0.29976934
12	0xbe2677c1	-0.1625662
13	0x39f7fac4	0.00047298346
14	0x3aa0e6b5	0.0012275787
15	0xbe4bfdd9	-0.19921054
16	0xbcb233a9	-0.02175315
17	0x3e9e78b6	0.3095147
18	0x3e3f47a3	0.18679671
19	0x3e8de669	0.27714851
20	0x3a368f18	0.00069640717
21	0xbe31092f	-0.1728866
22	0xbd56e0fe	-0.052460663
23	0x3a4c6c65	0.00077981345
24	0x3da1d221	0.07901407
25	0x3d9492d4	0.07254568
26	0x3e32f667	0.17476808
27	0xbc599061	-0.0132790515
28	0xbea1ee17	-0.3162696
29	0x3e382c5d	0.17985673
30	0x3e0f4c8e	0.13994047
31	0xbdc1ec10	-0.094688535

weight f4 [64, 32, 3, 3]
0	0xbd185e7b	-0.03719948
1	0x3dd4782c	0.103744835
2	0x3d06c0cc	0.03289871
3	0x3b450355	0.00300618
4	0x3d0cd8d0	0.034386456
5	0x3de305d7	0.11085098
6	0xbcd4649e	-0.025926884
7	0xbcfefd04	-0.031126507
8	0xbd3268df	-0.043557044
9	0x3d3e1966	0.04641094
10	0xbdd7d8c1	-0.105393894
11	0xbcb8de7b	-0.022567024
12	0xbca5471d	-0.020175511
13	0xbd15b1d2	-0.036546536
14	0xbdb31782	-0.08744718
15	0xbd852a24	-0.06502178
16	0xbcce80c8	-0.025207892
17	0xbdc480ab	-0.09594854
18	0xbd0150b4	-0.031571105
19	0x3dc6e5c4	0.09711793
20	0x3e064bef	0.13114904
21	0xbd0f1e57	-0.034941044
22	0xbd2ecd78	-0.04267642
23	0x3dd19057	0.10232609
24	0xbd1f8197	-0.038941946
25	0xbd91e5f8	-0.07123941
26	0xbda56b7d	-0.080771424
27	0x3d7db436	0.06193944
28	0x3da77dd4	0.08178297
29	0x3d1f03a4	0.03882183
30	0xbda4b949	-0.08043153
31	0x3d95a3b3	0.07306614
32	0x3d5775a5	0.05260243
33	0xbc55daab	-0.013052623
34	0xbce9820d	-0.028504396
35	0xbd4db875	-0.05022474
36	0x3d0dedc1	0.034650568
37	0x3de52137	0.11187976
38	0x3d20507a	0.03913925
39	0xbd207e67	-0.039183047
40	0x3d53d376	0.051715337
41	0x3d4288f4	0.04749389
42	0xbdb8b5f5	-0.090190805
43	0xbd042cc0	-0.03226924
44	0xbd4eedc9	-0.05051974
45	0x3debea85	0.115193404
46	0x3d9be1ff	0.07611465
47	0xbc064830	-0.008195922
48	0x3c59adbf	0.013286053
49	0x3cf5b94a	0.02999558
50	0x3dd28dbe	0.102809414
51	0xbc30dec2	-0.010795297
52	0xbc95c434	-0.018282034
53	0xbd15ca36	-0.036569797
54	0x3d5e653a	0.054295756
55	0x3e019eb5	0.12658198
56	0x3ddf5b42	0.10906078
57	0xba18722b	-0.0005815352
58	0x3daac6a0	0.08338666
59	0x3e0fea4e	0.14054224
60	0xbd3af180	-0.04564047
61	0xbd049e81	-0.032377724
62	0xbd405437	-0.046955314
63	0xbb867412	-0.004103192
64	0x3c03f3df	0.008053749
65	0x3ba75475	0.0051065036
66	0xbd927acd	-0.07152329
67	0xbddc8bba	-0.10768838
68	0xbd9addad	-0.075618125
69	0xbd89afc3	-0.06722977
70	0xbd960120	-0.07324433
71	0xbdeb2b8f	-0.114829175
72	0x3ddad314	0.10684791
73	0x3d4687f2	0.04846949
74	0x3dfb9e2f	0.122860305
75	0x3d1170bc	0.035507903
76	0x3d312997	0.043252554
77	0x3dd98d28	0.106226265
78	0xbd82d8a8	-0.0638898
79	0x3c3dcd8d	0.011584652
80	0x3b9b612f	0.00474181
81	0x3ddf48fe	0.10902594
82	0x3deb8de4	0.11501673
83	0x3d9bc2e8	0.07605535
84	0xbd74e476	-0.05978819
85	0x3cb6ed30	0.022329897
86	0x3d4082d5	0.04699977
87	0xbd7d8db0	-0.0619027
88	0xbd6d16b6	-0.057882987
89	0x3bebd8f8	0.0071974955
90	0xbd0f7564	-0.03502406
91	0x3cefa1f5	0.029252032
92	0xbb92441e	-0.0044636866
93	0xbddaeab8	-0.106893
94	0xbd18403f	-0.037170645
95	0xbba19589	-0.004931156
96	0xbcca6f51	-0.024711283
97	0xbda3f4ed	-0.080057
98	0xbd8ae7ae	-0.06782471
99	0x3d711b7f	0.058864113
100	0x3d9be328	0.07611686
101	0xbd4849e9	-0.04889861
102	0x3db438c1	0.087998874
103	0x3d740ba9	0.059581432
104	0x3cd26e25	0.025687287
105	0x3d38341f	0.04497158
106	0x3d109239	0.0352957
107	0xbc2741bb	-0.010208542
108	0xbc197b6a	-0.009367803
109	0x3d6826b8	0.05667755
110	0x3d7147e6	0.05890646
111	0xbe106b7e	-0.14103505
112	0xbd2197d7	-0.039451446
113	0x3d90039d	0.07031939
114	0xbc897b7c	-0.016782515
115	0xbe066569	-0.13124622
116	0xbd5a702b	-0.053329628
117	0x3d1b7093	0.037949156
118	0x3ddf4d7e	0.10903452
119	0x3e042886	0.12906083
120	0xbdb37cb9	-0.08764023
121	0x3d5c585b	0.0537952
122	0x3d68d5ce	0.056844525
123	0xbdf441da	-0.11926623
124	0xbdedeee9	-0.11617834
125	0x3be9d226	0.0071356473
126	0x3dafa888	0.08577067
127	0x3daf75f2	0.08567418
128	0x3c937aea	0.018002946
129	0xbd5c0b91	-0.053721968
130	0x3cf58c84	0.02997423
131	0x3dcca959	0.09993238
132	0xbc3985d8	-0.011323415
133	0xbd87155a	-0.06595869
134	0x3cdd233d	0.026994342
135	0xbcbb6af3	-0.022878146
136	0xbc2e21f6	-0.010628214
137	0x3c9eae82	0.019370321
138	0xbd3e5b19	-0.046473596
139	0xbc8ab2eb	-0.016931018
140	0x3da13e32	0.07873191
141	0xbde00a52	-0.109394684
142	0xbda07338	-0.07834476
143	0xbcb873a2	-0.022516076
144	0x3bb6933e	0.005571752
145	0xbc447e84	-0.011993054
146	0x3d3c77a4	0.046012536
147	0xbe08ebeb	-0.13371246
148	0xbdade8c5	-0.08491663
149	0x3d02f4f2	0.03197188
150	0xbc045d49	-0.008078882
151	0xbddc6449	-0.107613154
152	0xbe044d64	-0.12920147
153	0x3cc27815	0.0237389
154	0xbd4d69f5	-0.050149877
155	0xbe0542e2	-0.13013795
156	0x3cf5ba5c	0.02999609
157	0x3c1ef015	0.009700795
158	0xbcc1d4a8	-0.023660973
159	0x3d5eeb6d	0.05442374
160	0x3d447ecd	0.04797249
161	0x3e20b7d9	0.15695132
162	0xbd9df84f	-0.07713377
163	0xbe3195b8	-0.1734227
164	0xbd2c83b8	-0.042117804
165	0xbd81a37d	-0.06330011
166	0xbdf82c7b	-0.12117859
167	0xbdff3abb	-0.12462374
168	0xbc8e4f99	-0.01737194
169	0xbcc9723a	-0.0245906
170	0xbda23d09	-0.07921798
171	0x3ddcdbb9	0.10784096
172	0x3de79e5d	0.11309502
173	0x3b37b8a4	0.0028033638
174	0x3d7ff355	0.06248792
175	0xb9c6b1f9	-0.00037898103
176	0x3e0b76c5	0.13619526
177	0x3c847185	0.016167412
178	0x3c89d690	0.016825944
179	0x3d5e7a64	0.05431594
180	0xb9420538	-0.00018503226
181	0x3d136b10	0.035990775
182	0x3da841cd	0.082156755
183	0xbd0cdb9f	-0.034389134
184	0x3d516ce9	0.051129255
185	0x3ccfbcfa	0.025358666
186	0xbdc07ec4	-0.093991786
187	0xbd10a9d4	-0.03531821
188	0xbb594ef0	-0.0033158623
189	0x3bceb4d9	0.00630818
190	0x3dcd8d64	0.10036734
191	0x3dadf4c5	0.08493952
192	0xbdf65429	-0.12027771
193	0xbcd4f839	-0.025997268
194	0x3d811604	0.06303027
195	0xbd928971	-0.07155121
196	0xbdd42a75	-0.103596605
197	0xbda4db97	-0.08049696
198	0x3aeb0998	0.0017931936
199	0xbc948c1f	-0.018133221
200	0xbcd6f409	-0.026239412
201	0xbde0d312	-0.109777585
202	0xbcd8639d	-0.026414687
203	0x3d8d4bb6	0.06899206
204	0xbd054f4e	-0.032546334
205	0xbe0ddf84	-0.13854796
206	0x3c964f6a	0.018348414
207	0xbb8475d3	-0.004042366
208	0x3df215ec	0.118205875
209	0x3d838512	0.064218655
210	0xbc852247	-0.016251696
211	0xbcdbe3dd	-0.026842052
212	0x3d8ba4e2	0.06818558
213	0xbc8a2dc8	-0.016867533
214	0xbd2ef3c2	-0.042712934
215	0xbcbbd59a	-0.022929002
216	0x3dbb7e3d	0.091549374
217	0x3d6e5ae2	0.05819214
218	0x3dc90f6c	0.098173946
219	0xbc92df48	-0.017928734
220	0x3cec8f96	0.02887706
221	0x3d52780d	0.05138402
222	0xbd941b06	-0.07231717
223	0xbda217c6	-0.07914691
224	0x3c777619	0.01510384
225	0xbd401f8a	-0.046905078
226	0x3ca0bb7a	0.019620646
227	0x3d35d309	0.044390712
228	0xbdc89069	-0.09793169
229	0xbca51e9d	-0.0201562
230	0x3d82880f	0.06373607
231	0x3cf382cf	0.02972546
232	0xbd69d2d7	-0.05708584
233	0x3b766f13	0.0037602826
234	0xbd7e543a	-0.062092043
235	0x3cf68c72	0.030096266
236	0x3d573c09	0.05254749
237	0xbda74af9	-0.08168597
238	0xbd414cb9	-0.04719231
239	0xbdb3cb02	-0.08778955
240	0x3d166adf	0.036723014
241	0x3d28056d	0.0410208
242	0xbd7494b4	-0.059712127
243	0xbd85173e	-0.06498574
244	0x3db7930b	0.08963593
245	0x3db94c09	0.09047706
246	0xbde63c00	-0.11241913
247	0xbdcdb997	-0.10045164
248	0x3d38f129	0.045151863
249	0xbd0ee832	-0.034889407
250	0xbde2ed30	-0.11080396
251	0xbdd515eb	-0.10404571
252	0x3bb847f8	0.0056238137
253	0x3d037b27	0.03209987
254	0x3d1cac77	0.038250413
255	0xbc1770f4	-0.009243239

bias f4 [64]
0	0xbd162eb5	-0.036665637
1	0xbd8d727f	-0.06906604
2	0x3de289cd	0.1106144
3	0xbd9b5cef	-0.07586085
4	0x3c49e0df	0.01232168
5	0xbd4934ee	-0.049122743
6	0xbd195a4c	-0.03743963
7	0xbcef272d	-0.029193485
8	0xbcdb0f33	-0.026740646
9	0xbce3bf5a	-0.027801204
10	0x3c476e50	0.012172297
11	0x3cb3a5e0	0.021929681
12	0xbc7eb8ca	-0.015546987
13	0xbd93f317	-0.072241
14	0xbd2489fb	-0.04017065
15	0xbd9e9754	-0.07743707
16	0x3d19d3d4	0.03755553
17	0xbd847813	-0.06468215
18	0x3d8956a3	0.06705978
19	0xbcbac5d7	-0.022799416
20	0xbd6e3387	-0.05815461
21	0xbd748232	-0.059694476
22	0x3d08b935	0.033379752
23	0xba7fcb26	-0.00097577495
24	0xbd0df22c	-0.03465478
25	0x3ca99e33	0.020705318
26	0xbd54a55b	-0.051915508
27	0x3cf948e3	0.030430263
28	0xbd2e12b5	-0.04249831
29	0xbc832ed2	-0.016013537
30	0xbd183a2f	-0.037164863
31	0x3c68740b	0.014187823
32	0xbd495821	-0.049156312
33	0xbd136942	-0.035989054
34	0x3ca2b14c	0.019859932
35	0xbd5e28e3	-0.05423821
36	0xbd092d1c	-0.033490285
37	0x3b0b6b6e	0.002127375
38	0x3b5dd5ee	0.0033849436
39	0xbd4221cc	-0.047395512
40	0xbca257d9	-0.01981728
41	0x3d5b3413	0.05351646
42	0x3d9d1c55	0.076714195
43	0x3d57917c	0.05262898
44	0xbd8a1ddc	-0.067439765
45	0xbd1b6d3b	-0.037945967
46	0xbd81ef85	-0.06344513
47	0x3aec5f65	0.0018033801
48	0x3c3c70cb	0.011501501
49	0x3d9bce46	0.07607703
50	0xbd273ad3	-0.040827584
51	0xbc7d5584	-0.015462283
52	0x3c9b0153	0.01892153
53	0xbd7915b6	-0.06081172
54	0x3bcf75e8	0.006331194
55	0x3d1bb943	0.038018476
56	0xbd334bad	-0.043773342
57	0xbd14562f	-0.036215004
58	0xb97a84d4	-0.0002389134
59	0xbd679c9b	-0.056545835
60	0x3ce4d8b7	0.027935369
61	0xba50f551	-0.00079711253
62	0xbce31923	-0.027721947
63	0x3cce49fc	0.025181763

weight f4 [128, 64, 3, 3]
0	0xbd091fdb	-0.033477645
1	0x3cfdbd58	0.030974075
2	0xbd9d14f9	-0.07670016
3	0x3c2c1357	0.010502658
4	0x3d2ced2b	0.04221837
5	0x3d541ab9	0.051783297
6	0xbc228ced	-0.009921295
7	0xbb4af64b	-0.0030969556
8	0xbc7a26e2	-0.015268059
9	0xbd011606	-0.031515144
10	0xbc170791	-0.009218113
11	0xbda84b79	-0.0821752
12	0x3cce5975	0.02518914
13	0xbc6369ed	-0.013880235
14	0x3ce19e3f	0.027541278
15	0xbb8762f4	-0.004131669
16	0xbcfbd14e	-0.030739453
17	0x3b4450bb	0.0029955346
18	0x3c7b8fc0	0.015354097
19	0xbb48cd3a	-0.0030639903
20	0x3ca6517e	0.02030253
21	0xbd0d4bd1	-0.034496132
22	0xbc28d9ec	-0.010305863
23	0x3c1f591a	0.009725833
24	0x3d02832c	0.031863376
25	0xbbd7a9df	-0.0065815295
26	0x3db5361e	0.08848213
27	0x3d0497bd	0.03237127
28	0x3ca3f8f3	0.02001617
29	0xbca114f8	-0.019663319
30	0xbce7756c	-0.028254233
31	0xbc1d5804	-0.009603504
32	0x3d09f7f1	0.03368372
33	0xbbd0bcb7	-0.006370153
34	0xbccbd666	-0.024882507
35	0xbcd2e80c	-0.025745414
36	0x3c025800	0.007955551
37	0x3c881ba6	0.016614746
38	0xbc243044	-0.010021273
39	0x3cb281c6	0.021790396
40	0x3b396180	0.0028286874
41	0x3c6bca2c	0.014391463
42	0xbc8c66f8	-0.017138943
43	0xbd11d747	-0.035605695
44	0xbcdf0c58	-0.027227566
45	0xbb3c9578	-0.0028775614
46	0x3c9cb1f7	0.019127829
47	0x3d1298a9	0.03579012
48	0x3b88acc3	0.0041709854
49	0x3adb525d	0.001673292
50	0xbd5a96c1	-0.053366426
51	0xbd46620e	-0.048433356
52	0x3cab520b	0.020913145
53	0xbc3921b8	-0.011299543
54	0xbce7abee	-0.028280225
55	0x3d163e43	0.03668047
56	0x3a8dba83	0.0010813031
57	0xbcfc2da5	-0.030783484
58	0xbd282be8	-0.041057497
59	0x3d1324af	0.035923656
60	0x3cc10662	0.023562614
61	0xbd2bdb36	-0.041957103
62	0xbab35f2c	-0.001368498
63	0xbbd043b5	-0.0063557276
64	0x3cd7c7ef	0.026340453
65	0x3cc3858a	0.023867387
66	0x3c9fe341	0.019517543
67	0xbcfd5a04	-0.030926712
68	0xbc044509	-0.0080731
69	0x3cbd2fd5	0.023094097
70	0xbcffe0bc	-0.031235091
71	0xbd3e1886	-0.046410106
72	0xbd976209	-0.073917456
73	0xbc8f8b48	-0.01752247
74	0xbdb1f9ee	-0.086902484
75	0x3cff5ea0	0.03117305
76	0x3c9b0692	0.018924031
77	0x3cfb80a1	0.030700983
78	0xbca73413	-0.020410573
79	0xbc12b2d1	-0.008953766
80	0xbd00c16e	-0.03143447
81	0xbcc4844b	-0.023988863
82	0xbc154db3	-0.009112763
83	0xbc5cfe11	-0.0134883085
84	0x3ca29596	0.019846719
85	0xbcc585a6	-0.02411158
86	0xbd1874d1	-0.03722078
87	0xbb77db69	-0.0037819988
88	0x3c03e669	0.0080505395
89	0x3be8af6a	0.007100989
90	0xbd533be9	-0.051570807
91	0xbcfdfb04	-0.031003483
92	0xba3c36e4	-0.000717981
93	0x3ca4a949	0.020100253
94	0x3c74334d	0.014904809
95	0x3d244ee6	0.040114306
96	0xbcec879d	-0.02887326
97	0xbc9e22a9	-0.019303637
98	0xbbf275fd	-0.007399319
99	0x3b063be5	0.0020482477
100	0x3d4cc46d	0.049992014
101	0x3ce895c9	0.028391736
102	0xbd2cc2e7	-0.04217806
103	0x3c6f1753	0.014592963
104	0x3ba4e49b	0.0050321347
105	0x3caa948b	0.020822784
106	0x3d00291a	0.031289198
107	0xbbdfed29	-0.0068336916
108	0x3d3de69b	0.0463625
109	0x3a5fdab6	0.00085393654
110	0xbccbf353	-0.0248963
111	0x3d2ef00a	0.042709388
112	0x3c5d0ef3	0.013492334
113	0x3c47fc19	0.012206101
114	0x3c7f8f5d	0.015598145
115	0xbcba49db	-0.022740295
116	0xbd2e5f2f	-0.042571243
117	0xbb4789e8	-0.0030447189
118	0xbd17149e	-0.036884896
119	0xbd2f85d6	-0.042852245
120	0x3d0e2756	0.034705482
121	0x3ce95df6	0.028487187
122	0xbb63c4a1	-0.003475465
123	0x3d1bbb05	0.038020153
124	0x3c015228	0.007893123
125	0xbd37ee13	-0.04490478
126	0x3ccc623a	0.024949182
127	0x3cd5a7d4	0.026081003
128	0xbd17a6a3	-0.03702415
129	0xbcf5cb56	-0.030004185
130	0x3d0d3060	0.034469962
131	0x3b1c9719	0.0023893772
132	0x3d09f579	0.033681367
133	0x3c80d7fe	0.015727993
134	0x3c8736f6	0.0165057
135	0x3d34cd8e	0.044141345
136	0x3cb014f2	0.021494363
137	0xbc31ce82	-0.010852458
138	0x3b5f1989	0.003404232
139	0xbc2315da	-0.00995394
140	0xbbd15f65	-0.0063895457
141	0x3c9e5588	0.019327894
142	0xbc9e8cd1	-0.019354256
143	0x3ca6bcc0	0.020353675
144	0x3c85ff8b	0.016357204
145	0xbc0930d9	-0.008373463
146	0x3d03a50a	0.032139815
147	0x3c151df5	0.009101381
148	0xbcabdb23	-0.020978516
149	0xbce0a515	-0.027422467
150	0xbb2871e1	-0.0025702643
151	0xbb85a88e	-0.004078931
152	0xbdba4b49	-0.09096391
153	0x3c7772db	0.015103067
154	0x3d1ac9c5	0.03779008
155	0x3d454fe9	0.04817191
156	0x3d2228f2	0.03958983
157	0xbc38d32b	-0.011280815
158	0xbcdd2d64	-0.026999183
159	0x3c5ead53	0.013591128
160	0x3b58d5b0	0.0033086352
161	0xbcbbb0bf	-0.022911428
162	0xbad45946	-0.0016200922
163	0x3ce7a393	0.02827624
164	0xbcca30b3	-0.024681425
165	0x3c2ef6ab	0.010678927
166	0xbd145b37	-0.0362198
167	0xbd00f50d	-0.0314837
168	0xbc9c021c	-0.019043975
169	0x3af8e9cb	0.0018990574
170	0x3d14fea4	0.036375657
171	0x3c763772	0.015027868
172	0x3cde9f32	0.02717552
173	0xbd4cc00e	-0.049987845
174	0xbc8b78f7	-0.017025454
175	0x3c9ca775	0.019122818
176	0xbc36ce95	-0.011157651
177	0x3a479889	0.0007613977
178	0xbd847766	-0.06468086
179	0x3d1ea28c	0.038729236
180	0xbd3627f6	-0.044471703
181	0x3cd2c43b	0.025728336
182	0xbcec14d8	-0.028818533
183	0xbbc8da2c	-0.0061295237
184	0x3cb4cf76	0.022071581
185	0xbd0604fb	-0.032719593
186	0xbc9a896c	-0.018864356
187	0xbcff6aa7	-0.031178785
188	0xbd252f4f	-0.04032832
189	0x3ce8a12e	0.028397169
190	0xbc15727f	-0.009121536
191	0xbca25831	-0.019817444
192	0xbd36c45c	-0.044620857
193	0xb90b701a	-0.00013297834
194	0xbd8bc9a1	-0.06825567
195	0xbca8154a	-0.020517964
196	0xbcf3ffae	-0.029785004
197	0xbbec1d56	-0.0072056456
198	0x3aa7bd14	0.0012797439
199	0xbba42dc5	-0.005010339
200	0xbcf13a25	-0.02944667
201	0x3cf4e5e4	0.029894777
202	0xbd38234c	-0.044955537
203	0xba46c92e	-0.00075830787
204	0xbd1a3e25	-0.037656922
205	0xbd5e34ca	-0.054249562
206	0x3ce6b939	0.028164493
207	0x3d05fbf6	0.03271099
208	0xbc478ee5	-0.012180065
209	0xbd4ddbbe	-0.05025839
210	0x3c1ebe76	0.009688964
211	0xbc5406fc	-0.012941118
212	0xbcdca31e	-0.02693325
213	0x3caac0bb	0.020843854
214	0xbca60c4b	-0.020269534
215	0xbd1141bc	-0.03546308
216	0xbbcf1846	-0.0063200323
217	0x3c0e5b1a	0.0086887125
218	0xbd8eef3d	-0.06979225
219	0xbc755443	-0.014973703
220	0x3c50c1fc	0.012741562
221	0x3c159b7a	0.009131307
222	0xbd007bf1	-0.0313682
223	0xbc5cecfa	-0.013484234
224	0xbc2483d9	-0.010041201
225	0xbd2fac8c	-0.042889163
226	0xbbb230db	-0.005437953
227	0x3b30da64	0.002698564
228	0x3bcd07f5	0.006257052
229	0x3c2cb234	0.010540534
230	0xbca9f858	-0.020748302
231	0xbc19ae27	-0.0093799
232	0xbcaeaa14	-0.021321334
233	0xbd4dfb66	-0.05028858
234	0xbcd5e474	-0.026109912
235	0x3d047bca	0.032344617
236	0xbcbabb19	-0.022794293
237	0xbc2920dd	-0.010322777
238	0xbd235aeb	-0.039881628
239	0x3d17a08b	0.03701834
240	0x3c2283bf	0.009919106
241	0xbcfed04e	-0.031105187
242	0xbced3b4e	-0.028958943
243	0xbd3641cf	-0.044496354
244	0x3c8497d3	0.016185677
245	0xbd484469	-0.048893366
246	0x3cfff4ac	0.031244598
247	0xbca2ef94	-0.01988963
248	0xbbbefcaf	-0.005828462
249	0x3ca0d779	0.019633995
250	0xbc29681c	-0.010339763
251	0xbc1792fb	-0.0092513515
252	0xbc4708bf	-0.012148081
253	0xbc8b44fe	-0.017000671
254	0xbd42093e	-0.047372095
255	0x3addcb56	0.0016921561

bias f4 [128]
0	0xbc500f32	-0.012698935
1	0xbd3769ad	-0.044778515
2	0xba99c3e9	-0.0011731359
3	0xbd05a943	-0.032632124
4	0x3ca9089d	0.02063399
5	0x3cf0b283	0.029381996
6	0xbc190368	-0.009339191
7	0x3c8b1cd0	0.016981512
8	0x3c74f9d0	0.014952138
9	0xbcc8a0c0	-0.024490714
10	0xbd284dee	-0.041089945
11	0x3ba2bd0e	0.0049663847
12	0x3cdec085	0.02719141
13	0xbc989eba	-0.018630374
14	0xbc5c64f3	-0.013451803
15	0x3aeb0b4f	0.0017932447
16	0xbc3c92db	-0.011509622
17	0xbd34445d	-0.04401051
18	0x3af0fdb1	0.0018386153
19	0x3ae10169	0.0017166558
20	0xbd55f38f	-0.05223423
21	0xbc9c1dad	-0.01905712
22	0x3c25a05b	0.0101090325
23	0xbb9739f2	-0.004615062
24	0x3d010939	0.031502936
25	0xbca39ba3	-0.019971674
26	0xbccb435f	-0.024812398
27	0xbd199e0f	-0.037504252
28	0xbb2576d4	-0.002524783
29	0xbc9082b7	-0.017640455
30	0x3d00de28	0.031461865
31	0xbcd9b712	-0.026576553
32	0xbd14dc14	-0.036342695
33	0x3ca1b502	0.019739632
34	0x3ac236b0	0.0014817324
35	0x3bdef296	0.006803821
36	0x3d10f83d	0.03539299
37	0x3c6c0288	0.0144049
38	0xbd29f756	-0.041495644
39	0x3982c81d	0.00024944628
40	0xbc807726	-0.015681814
41	0x3a747bd2	0.0009326312
42	0xbbbd14fa	-0.005770323
43	0x3c4a5620	0.012349635
44	0xbc9e9b2e	-0.019361105
45	0xbcbe2c14	-0.023214377
46	0xbc1ad611	-0.0094504515
47	0xbce57052	-0.02800766
48	0xbc6dd390	-0.014515772
49	0xbc1b391d	-0.009474066
50	0xbce8fd70	-0.02844116
51	0xbcbf8152	-0.023377094
52	0x3d396b4b	0.04526834
53	0xbb88c9a5	-0.0041744285
54	0xba188867	-0.00058186654
55	0x3ce25533	0.027628517
56	0x3bcefb16	0.006316553
57	0xbc95cd72	-0.01828644
58	0xbce60f4a	-0.028083462
59	0x3d07f0f9	0.033188794
60	0xbd449934	-0.04799767
61	0x3b4bf5cc	0.0031121848
62	0x3d1b0a0a	0.03785137
63	0x3cc885f7	0.024477942
64	0x3c06fb72	0.00823866
65	0x3cdb5cee	0.02677771
66	0xbc866106	-0.016403686
67	0xbd4017fc	-0.046897873
68	0xbceebbbe	-0.029142257
69	0xbd233c80	-0.03985262
70	0xbc774f36	-0.015094569
71	0xbd0616db	-0.03273664
72	0xbba22c91	-0.0049491604
73	0xbcd9700d	-0.026542688
74	0xbc9a1cb3	-0.018812513
75	0xbd1ae202	-0.037813194
76	0x3cdf4f76	0.02725957
77	0x3b047c00	0.0020215511
78	0x3ccd9734	0.025096513
79	0x3cc88fa9	0.024482565
80	0xbd1414b8	-0.03615257
81	0xbd1a2064	-0.037628546
82	0x3cd0a200	0.025467873
83	0x3ab320a8	0.0013666349
84	0x3cb29d0c	0.021803401
85	0xbd046758	-0.03232512
86	0x3cd584fa	0.026064385
87	0x3c3aa917	0.011392853
88	0x3c4c5814	0.012472171
89	0xbc1b1205	-0.009464745
90	0xba833d3a	-0.0010012754
91	0x3c83bbd0	0.016080767
92	0xbc1d1ac5	-0.009588902
93	0xbca1dc74	-0.01975844
94	0x3c85adcd	0.016318226
95	0xbd189b6b	-0.037257593
96	0x3cd86973	0.02641747
97	0xbc1332e8	-0.008984305
98	0xbd1ca7a2	-0.038245805
99	0x3bdf2de3	0.00681089
100	0xbcfcbbef	-0.030851332
101	0xbbfe973d	-0.007769494
102	0xbcce3f65	-0.025176713
103	0xbd090ed0	-0.033461392
104	0xbcf046f8	-0.029330716
105	0xbcd170b4	-0.025566436
106	0x3bb67767	0.005568433
107	0xbca705c3	-0.02038849
108	0x3d1a30b3	0.0376441
109	0x3c677797	0.014127634
110	0x3d1692b5	0.036761004
111	0xbd2fe505	-0.04294302
112	0xbd2c138f	-0.04201084
113	0xbb8d22af	-0.004307113
114	0xbb5aefec	-0.0033407165
115	0x3ca38061	0.019958677
116	0x3c4f7a17	0.012663386
117	0x3c85ea7d	0.016347164
118	0xbc2c9ac0	-0.010534942
119	0xbb9794f5	-0.0046259114
120	0xbba95b65	-0.005168366
121	0xbca7a949	-0.020466464
122	0xbc684498	-0.01417651
123	0x3cad8cda	0.021185327
124	0xbce43baa	-0.027860481
125	0x3c2dbb62	0.010603758
126	0x3c594f08	0.013263471
127	0xbcb4e07b	-0.022079697

weight f4 [10, 128]
0	0x3d7febbf	0.062480684
1	0x3d941d8f	0.072322
2	0xbe0f0edb	-0.1397051
3	0xbda96a0f	-0.08272182
4	0x3b8d1d25	0.004306453
5	0xbe1b3168	-0.15155566
6	0x3ac20201	0.0014801623
7	0xbc82f2a2	-0.015984837
8	0x3e01f124	0.12689644
9	0xbd0b6db7	-0.03404018
10	0xbe011a4c	-0.12607688
11	0xbe16c1b3	-0.14722328
12	0x3ca4ac2f	0.020101635
13	0xbe331086	-0.17486772
14	0x3cb12382	0.021623377
15	0xbdbd528d	-0.09244261
16	0x3d9dc4ca	0.0770355
17	0xbd48209e	-0.04885923
18	0x3da7bb2f	0.08189999
19	0xbdc14989	-0.09437854
20	0x3dfce9f6	0.12349312
21	0x3df914bb	0.12162157
22	0xbdee67b5	-0.11640874
23	0x3d8eac61	0.069664724
24	0xbd8865cd	-0.06660042
25	0x3dd4a036	0.1038212
26	0x3c58da78	0.013235681
27	0x3cd7f573	0.026362156
28	0xbd9b844a	-0.075935915
29	0xbddb1f15	-0.10699288
30	0xbd4c554f	-0.049886044
31	0xbb7c3874	-0.0038485797
32	0xbdfa523a	-0.12222715
33	0xbd7af95e	-0.06127297
34	0x3c0e9061	0.008701415
35	0xbdaa553e	-0.0831704
36	0xbdb7b549	-0.08970124
37	0xbd81d7ca	-0.063399866
38	0xbd83732c	-0.06418452
39	0xbdbb218c	-0.09137258
40	0x3d9fe1a4	0.078067094
41	0xbe0d09a7	-0.13773213
42	0xbd4ee70b	-0.05051331
43	0xbe40626a	-0.18787542
44	0xbd5b62b3	-0.053560924
45	0xbcb9fb8b	-0.022702953
46	0x3e022283	0.12708478
47	0x3d96459c	0.07337496
48	0xbda8ad29	-0.08236153
49	0xbdb463b8	-0.08808082
50	0x3cbdc4bf	0.023165105
51	0x3d4ea9c8	0.050454885
52	0x3cfeefbb	0.031120172
53	0x3d1fff45	0.039061803
54	0x3d79f85c	0.06102787
55	0x3d5f5299	0.05452213
56	0x3def3b8e	0.11681281
57	0xbc820a3b	-0.015874019
58	0xbe5c4121	-0.2150922
59	0x3ca2bead	0.019866312
60	0x3d3f8ebe	0.04676699
61	0x3d8bcbd6	0.06825988
62	0x3dae4814	0.085098416
63	0x3c73d0e6	0.014881348
64	0x3dbf7855	0.093491234
65	0xbd03b4e3	-0.03215493
66	0x3cf48235	0.029847244
67	0x3d37cd57	0.04487356
68	0xbe054356	-0.13013968
69	0x3c810563	0.015749639
70	0xbd3ea7e6	-0.04654684
71	0x3d938843	0.07203724
72	0xbddee632	-0.1088375
73	0xbdf827e4	-0.121169835
74	0x3d56c5d9	0.052434776
75	0xbcbe414e	-0.0232245
76	0x3d7ad790	0.061240733
77	0xbc44ba7a	-0.01200735
78	0xbd818c29	-0.063255616
79	0xbdac606c	-0.084168285
80	0xbdb1a2a9	-0.08673603
81	0xbc84000f	-0.01611331
82	0x3c8b4d69	0.017004685
83	0xbe2d36c1	-0.16915418
84	0x3dbf3b9b	0.09337541
85	0x3c8fc019	0.017547654
86	0xbd190aa6	-0.03736367
87	0xbd83af22	-0.06429888
88	0xbdf2a684	-0.118481666
89	0x3d349cc7	0.044094827
90	0x3d2bff68	0.04199162
91	0x3d4cc7c3	0.049995195
92	0x3d833b32	0.06407775
93	0xbbfdda08	-0.0077469386
94	0xbe2f6ca0	-0.17131281
95	0x3d5903e4	0.052982226
96	0x3bbdc042	0.005790741
97	0x3cd40d44	0.025885232
98	0x3da62f8f	0.0811454
99	0x3d010729	0.03150097
100	0xbd9788da	-0.07399149
101	0xbe82c92d	-0.2554411
102	0xbe290217	-0.16504703
103	0x3d42ec4b	0.047588628
104	0xbd2bb5fb	-0.041921597
105	0xbd6a5212	-0.057207175
106	0x3c521d98	0.0128244385
107	0x3c6650eb	0.014057378
108	0xbe00fe8c	-0.12597102
109	0xbd2dfb88	-0.042476207
110	0x3d4d719c	0.050157174
111	0x3d13af3e	0.036055796
112	0xbdde9faa	-0.10870297
113	0x3cbb4a35	0.022862533
114	0x3da800ad	0.08203254
115	0xbdf7f663	-0.121075414
116	0xbd70e059	-0.058807705
117	0x3d064919	0.032784555
118	0xbe23e212	-0.16004208
119	0xbd487a4b	-0.048944753
120	0x3d64e703	0.055884372
121	0xbdf203cd	-0.11817131
122	0x3d30fd54	0.043210343
123	0xbe585db1	-0.2112949
124	0xbdd87fe1	-0.10571266
125	0x3d9ba0be	0.075990185
126	0x3db1bba8	0.08678371
127	0x3cbc0b28	0.022954538
128	0x3c3195e6	0.010838961
129	0x3d20e405	0.039279956
130	0xbd07ce6c	-0.033155844
131	0x3d469cad	0.04848926
132	0x3dbbef31	0.091764815
133	0x3d1130bb	0.035446864
134	0x3db6cf68	0.08926278
135	0x3d920b78	0.07131094
136	0xbdaa0b91	-0.08302987
137	0x3ddfbdef	0.10924899
138	0xbd91a5be	-0.07111691
139	0x3d10bd15	0.035336573
140	0x3e14e6fb	0.14541237
141	0xbdfa3538	-0.12217182
142	0xbe370797	-0.17873989
143	0x3d13a46b	0.036045473
144	0xbe627a02	-0.22116855
145	0xbd984396	-0.07434766
146	0xbe1b96a5	-0.15194185
147	0xbe253cc5	-0.16136463
148	0xbdfd0b0a	-0.12355621
149	0xbd91bb14	-0.071157604
150	0x3cf8783c	0.03033077
151	0x3de0963e	0.109661564
152	0x3dc833e2	0.09775521
153	0xbce6290d	-0.028095746
154	0x3d4b8829	0.0496904
155	0x3d3aedb6	0.045636855
156	0x3c4540d1	0.012039379
157	0x3d1c9e7b	0.038237076
158	0x3d92884e	0.07154904
159	0x3cd2ede8	0.025748208
160	0x3dc3c699	0.09559364
161	0xbe3e1b31	-0.1856506
162	0xbe283f3c	-0.16430372
163	0x3d56d0c5	0.052445192
164	0x3c1a1c57	0.009406171
165	0x3db8f804	0.0903168
166	0xbe65b021	-0.22430469
167	0x3d335082	0.04377795
168	0x3d9e2eb8	0.07723755
169	0xbb7274b9	-0.0036995842
170	0xbddfd000	-0.10928345
171	0x3c1052f7	0.008808843
172	0x3dc324a5	0.09528474
173	0xbe01342d	-0.1261756
174	0xbc8c954e	-0.017161038
175	0xbce30745	-0.027713427
176	0x3d02f8c8	0.031975538
177	0x3d71cdbb	0.05903409
178	0xbd099303	-0.033587467
179	0x3b2da83b	0.0026497978
180	0x3c831c7e	0.016004797
181	0xbc8d4d53	-0.017248785
182	0x3c6049ef	0.013689502
183	0xbd39cad5	-0.04535945
184	0x3cabdbea	0.020978887
185	0x3dc3a47c	0.09552857
186	0x3d847e4f	0.06469404
187	0x3ce8c059	0.028412031
188	0x3d9edfdf	0.07757544
189	0xbe3317e6	-0.17489585
190	0xbe029fd9	-0.1275629
191	0xbe82670d	-0.25469247
192	0x3c996c27	0.018728329
193	0x3d3407d8	0.043952793
194	0xbe27de9b	-0.16393511
195	0xbe107f5c	-0.14111084
196	0x3d109489	0.035297904
197	0xbd878e2c	-0.06618914
198	0x3d2727ba	0.04080937
199	0xbe1983db	-0.14991705
200	0xbd3e4e40	-0.046461344
201	0xbd1ec5d7	-0.038762894
202	0xbe229e00	-0.15880585
203	0x3cc50f41	0.024055125
204	0xbd9b7875	-0.07591335
205	0xbe07b4f6	-0.13252625
206	0x3db1e8fb	0.086870156
207	0x3c1696a2	0.009191187
208	0xbdf6cf18	-0.12051219
209	0x3cb1870b	0.021670839
210	0x3d25540d	0.04036336
211	0xbe13a275	-0.14417441
212	0xbd58aa65	-0.052896876
213	0xbdce9ce3	-0.100885175
214	0x3ccd2a64	0.025044627
215	0x3ddbd9b5	0.10734884
216	0xbdb9ac5a	-0.090660766
217	0xbe09b419	-0.13447608
218	0x3d95d59f	0.073161356
219	0x3c9466ec	0.018115483
220	0x3dc5972a	0.09647973
221	0x3c72edf8	0.014827244
222	0x3cfc04cd	0.030764008
223	0x3dddeee1	0.10836578
224	0x3db461df	0.0880773
225	0xbe357e2b	-0.1772391
226	0xbe379f2d	-0.17931814
227	0x3de29f92	0.11065592
228	0xbd912908	-0.07087904
229	0x3d971bb6	0.07378332
230	0xbca03c24	-0.019559927
231	0xbdc5ae19	-0.09652347
232	0xbcbf2e29	-0.02333744
233	0x3d96eed7	0.07369774
234	0x3dec7ac5	0.11546854
235	0xbd2a2c07	-0.041545894
236	0x3dc30bda	0.09523745
237	0x3dd17260	0.102268934
238	0x3dd9094a	0.10597475
239	0x3d0dcf42	0.034621485
240	0xbd2673a4	-0.040637627
241	0xbdde8cb8	-0.10866684
242	0x3b9b53f8	0.0047402345
243	0x3d5c72dc	0.053820476
244	0x3cdce4df	0.026964603
245	0xbcc1581e	-0.023601588
246	0xbdb7dc7a	-0.089775994
247	0xbdddee4d	-0.10836468
248	0x3d885d16	0.0665838
249	0x3d79a442	0.060947664
250	0xbcf57ed8	-0.02996771
251	0xbdd5e4c6	-0.10444026
252	0x3e08d721	0.13363315
253	0x3d9388ea	0.07203849
254	0xbe3efab8	-0.18650329
255	0xbd7c1652	-0.061544724

bias f4 [10]
0	0xbbae0c4e	-0.0053115254
1	0x3d7b2651	0.06131584
2	0x3d0b45a9	0.03400198
3	0xbc0ab833	-0.008466768
4	0x3d1f4fed	0.038894583
5	0xbc1adc5f	-0.009451955
6	0x3d77864b	0.060430806
7	0xbdb0769f	-0.08616375
8	0x3c23f8a0	0.010008007
9	0x3c22cb42	0.009936156
