models/model.pth (torch, 380328 bytes, 8 tensors)

weight f4 [32, 1, 3, 3]
-0.121081375 0.055869974 0.10166241 0.049161527 -0.07994186 -0.094544604 0.015158358 0.20064661
0.114661336 -0.18680012 -0.4346977 -0.27129796 0.5333655 -0.09895768 -0.5780788 0.37928063
0.63257533 -0.09718474 -0.17873463 -0.03792169 -0.110460795 0.092622906 0.25676805 0.2057794
-0.13188334 0.09873954 -0.20655477 0.005231495 -0.43010068 -0.08615636 0.016091017 0.034655716
-0.030634373 0.04900465 0.2265323 0.25434443 -0.33180946 -0.46604902 0.112207614 -0.22764996
0.19431105 0.5041575 -0.036567926 0.37642142 0.028862925 -0.08940743 0.19876695 -0.059888568
0.015692793 -0.33676988 0.14020836 -0.086371414 -0.21972223 0.20187366 0.5278017 0.55321234
0.017249089 -0.02410016 -0.21436018 -0.28302333 -0.51138324 -0.40007207 -0.31559047 0.049774002
-0.06157479 -0.083841324 -0.05947071 -0.44377777 -0.0419753 -0.025505772 0.04027872 0.51864207
-0.22672942 0.13345204 0.15727106 -0.35340187 -0.28387606 0.5064546 -0.19003189 -0.48103383
0.21025069 0.13025486 -0.021145782 0.19925033 -0.14509551 0.030479684 0.11337271 0.121678725
0.219574 -0.1746649 -0.19686678 -0.1658847 -0.357546 -0.15868598 -0.030076507 -0.13326386
-0.32182196 -0.044658832 -0.5365813 -0.51302886 -0.00048096714 -0.03700255 0.23867558 0.48448837
-0.27411222 0.19891977 -0.3742637 -0.15161905 -0.25665286 -0.08616063 0.022992047 0.088751085
0.12073593 -0.08331698 -0.012866118 -0.20440458 0.22226636 -0.3667074 -0.3818132 0.4143205
-0.077635504 -0.4480437 -0.25387585 -0.08866126 -0.33335158 -0.6431214 -0.14467035 -0.009129614
0.022573221 -0.28261396 -0.22778054 0.0072533768 0.22246024 0.2065762 0.1454769 -0.24439122
-0.10463589 0.24745023 -0.39822477 0.062022194 0.33152676 -0.47396135 -0.26407376 0.36732015
-0.44825032 -0.13899274 -0.36863384 -0.29369316 0.013613491 0.12641753 0.5345352 0.372753
0.094100475 0.19089133 0.21443643 -0.7097133 -0.07058419 -0.5922836 -0.6437484 -0.5548294
-0.5658559 0.273468 -0.090483285 0.14781462 -0.5652346 -0.053714663 0.21138965 0.20005193
-0.35514438 -0.017219348 0.24166295 0.010300731 0.35721582 0.08265126 0.19398986 0.37395272
-0.13008878 -0.52200645 -0.57669204 -0.44014764 0.23581436 0.14800897 -0.24776807 0.028122876
0.40598866 -0.7389429 0.5080622 0.013112483 -0.42462897 0.3262552 -0.093684606 -0.5577333
0.07806625 -0.36044022 -0.15159413 0.3337902 -0.4603126 0.067111515 0.23060687 0.1824583
-0.5469208 0.25771227 -0.13987409 -0.2809047 0.3143526 0.23874134 -0.4151553 0.31109715
-0.169615 0.28195173 -0.0061534876 0.0040060217 0.3268525 -0.13372675 -0.22286281 -0.53125143
-0.018957147 0.34188265 0.34237292 -0.051743034 -0.12338074 0.27103212 -0.5576171 -0.4111662
-0.1889741 0.13971584 0.112401865 0.1347259 0.15504321 0.05827113 0.19104077 0.18228291
-0.22013454 0.017119002 -0.1676083 0.056498364 0.01271779 -0.027800424 0.0115562985 -0.29327425
-0.17753777 0.30227318 0.11141139 -0.35599217 0.18230017 0.22618242 0.28808996 0.14891952
-0.36571437 -0.14159738 0.31536433 -0.44018415 -0.3119841 0.029609388 -0.25503615 0.107405595
00000000: 83f9 f7bd ead7 643d 6234 d03d 995d 493d
00000010: 8fb8 a3bd 9aa0 c1bd c35a 783c 4e76 4d3e
00000020: 90d3 ea3d 8848 3fbe b290 debe 91e7 8abe
00000030: a48a 083f 53aa cabd f9fc 13bf 1231 c23e
00000040: 75f0 213f cb08 c7bd 3606 37be c653 1bbd
00000050: 4539 e2bd 14b1 bd3d 1a77 833e d6b7 523e
00000060: 6d0c 07be f537 ca3d 1883 53be f66c ab3b
00000070: 2836 dcbe bf72 b0bd 4fd1 833c 27f3 0d3d
00000080: f0f4 fabc 1ab9 483d 15f8 673e 6f39 823e
00000090: eee2 a9be fa9d eebe 1bcd e53d 121d 69be
000000a0: 7af9 463e 7710 013f 40c8 15bd 4fba c03e
000000b0: f171 ec3c 3e1b b7bd 9089 4b3e b74d 75bd
000000c0: 2c8e 803c 1a6d acbe c892 0f3e 7fe3 b0bd
000000d0: ddfe 60be f8b7 4e3e 031e 073f 539f 0d3f
000000e0: f64d 8d3c b36d c5bc 3c81 5bbe 6fe8 90be
000000f0: 03ea 02bf 3fd6 ccbe 1395 a1be d3df 4b3d
00000100: d935 7cbd 00b5 abbd 8f97 73bd d736 e3be
00000110: 4bee 2bbd 7bf1 d0bc 4dfb 243d bac5 043f
00000120: c22b 68be a7a7 083e aa0b 213e 17f1 b4be
00000130: 3458 91be 02a7 013f b897 42be 114a f6be
00000140: f54b 573e 8861 053e eb39 adbc 4708 4c3e
00000150: eb93 14be 88b0 f93c f42f e83d b232 f93d
00000160: 02d8 603e 5bdb 32be 7297 49be aedd 29be
00000170: 4510 b7be 947e 22be 0263 f6bc 5276 08be
00000180: d9c5 a4be 2eec 36bd 645d 09bf dc55 03bf
00000190: 512a fcb9 fc8f 17bd 5f67 743e dc0e f83e
000001a0: 7058 8cbe a0b1 4b3e 7e9f bfbe 0642 1bbe
000001b0: 0168 83be fc74 b0bd d159 bc3c 21c3 b53d
000001c0: 6644 f73d 18a2 aabd 69cc 52bc 6f4f 51be
000001d0: cb99 633e 13c1 bbbe 057d c3be d121 d43e
000001e0: 5dff 9ebd fc65 e5be 04fc 81be 0994 b5bd
000001f0: 0fad aabe 9ba3 24bf 7724 14be 6094 15bc
00000200: 7aeb b83c c7b2 90be 4d3f 69be bcad ed3b
00000210: 9ecc 633e b688 533e e5f7 143e b141 7abe
00000220: 574b d6bd 9863 7d3e 1ee4 cbbe fc0a 7e3d
00000230: e0bd a93e 10ab f2be ad34 87be 6311 bc3e
00000240: 1181 e5be 1d54 0ebe 93bd bcbe f35e 96be
00000250: 1f0b 5f3c 9973 013e 4dd7 083f 7bd9 be3e
00000260: c0b7 c03d 0479 433e 3995 5b3e c5af 35bf
00000270: 728e 90bd e69f 17bf b2cc 24bf 4d09 0ebf
00000280: efdb 10bf ff03 8c3e 4d4f b9bd b75c 173e
00000290: 37b3 10bf e803 5cbd 8776 583e 6ada 4c3e
000002a0: 7cd5 b5be 970f 8dbc 7e76 773e 66c4 283c
000002b0: fee4 b63e 1045 a93d 47a5 463e bb76 bf3e
000002c0: fe35 05be 37a2 05bf 17a2 13bf 085b e1be
000002d0: 5279 713e aa8f 173e eab6 7dbe f261 e63c
000002e0: bfdd cf3e 5d2b 3dbf 5d10 023f bdd5 563c
000002f0: f868 d9be ec0a a73e b7dd bfbd 9cc7 0ebf
00000300: 33e1 9f3d 9f8b b8be 7e3b 1bbe 8de6 aa3e
00000310: 18ae ebbe c371 893d 3524 6c3e 59d6 3a3e
00000320: 0003 0cbf ddf2 833e 273b 0fbe bed2 8fbe
00000330: d3f2 a03e 9c78 743e 3c8f d4be 2048 9f3e
00000340: 8eaf 2dbe fa5b 903e 32a3 c9bb f244 833b
00000350: 3659 a73e aaef 08be 2636 64be 1800 08bf
00000360: 054c 9bbc 3e0b af3e 814b af3e 81f0 53bd
00000370: 0baf fcbd b9c4 8a3e ffbf 0ebf 6084 d2be
00000380: 6d82 41be ab11 0f3e f332 e63d 96f5 093e
00000390: a6c3 1e3e b5ad 6e3d 31a0 433e 5fa8 3a3e
000003a0: f36a 61be 263d 8c3c 83a1 2bbe d46a 673d
000003b0: 475e 503c b7bd e3bc a156 3d3c 0b28 96be
000003c0: 76cc 35be 8dc3 9a3e a82b e43d 9b44 b6be
000003d0: e5ac 3a3e 5d9c 673e 8780 933e 5c7e 183e
000003e0: ea3e bbbe e7fe 10be 6f77 a13e d15f e1be
000003f0: 61bc 9fbe 638f f23c 1994 82be 77f7 db3d

bias f4 [32]
-0.31182632 -0.118534304 -0.105574094 -0.10070285 -0.118428744 -0.17064454 -0.0649158 -0.10496821
-0.24924792 -0.44992325 0.2638421 -0.15083402 -0.101044305 0.34689167 -0.11659802 -0.23471417
-0.09540629 0.28093976 -0.15813027 0.06558334 -0.09096217 0.07642222 -0.19755122 -0.08760349
-0.19951235 -0.47197208 -0.10210251 -0.0840266 -0.08807577 -0.22337542 -0.23784436 -0.1467812
00000000: b3a7 9fbe 1dc2 f2bd 3b37 d8bd 4c3d cebd
00000010: c58a f2bd 71bd 2ebe 93f2 84bd 93f9 d6bd
00000020: d93a 7fbe 575c e6be 5016 873e 3c74 1abe
00000030: 51f0 cebd c99b b13e f1ca eebd e958 70be
00000040: 5f64 c3bd 56d7 8f3e e7ec 21be 8f50 863d
00000050: 604a babd 4183 9c3d de4a 4abe 7569 b3bd
00000060: f74c 4cbe 53a6 f1be 1f1b d1bd 2316 acbd
00000070: 1261 b4bd 87bc 64be 798d 73be d04d 16be

weight f4 [64, 32, 3, 3]
0.096186936 0.0779393 -0.072103284 0.065896474 0.117925525 0.14792494 0.11490617 0.06497845
0.025338788 0.12967193 0.08929942 0.019282274 -0.029403936 0.029736424 0.23294798 -0.29346138
-0.2768816 -0.23584226 -0.12624235 0.010033502 -0.073559515 0.15527777 0.112442516 0.05548097
0.022075279 0.029329108 0.005967436 0.107732184 0.03671292 -0.13619941 0.14355192 0.17298816
0.20429407 0.1094103 -0.007043869 0.14617138 0.059320323 -0.09824251 -0.23167156 0.120838575
0.056393508 0.0033892547 0.022465335 -0.0069406694 -0.091302395 -0.10998963 -0.05455146 -0.3414855
-0.1673903 -0.21313913 -0.15069431 -0.02868716 -0.00978679 0.06997261 -0.06470554 0.09372166
-0.049600918 -0.08824946 -0.0055125006 -0.1107834 0.089836 -0.0030048168 -0.12648106 0.038750716
0.01869764 -0.19072068 0.108940676 0.08799978 0.13253331 0.14212847 0.019389933 0.028849846
-0.048802804 -0.109217286 -0.10658473 -0.24174784 -0.35313016 -0.20039956 -0.083822094 -0.16679467
0.09335107 -0.21676102 -0.078535944 -0.026919859 0.030705802 0.015194021 -0.084170766 0.044745486
0.1619869 0.09741781 0.13491797 0.026934111 0.08029164 0.035129372 -0.012410314 -0.08455912
-0.16111283 -0.019605063 -0.14668086 0.076073796 -0.16564696 -0.036172364 0.15721628 0.044075686
0.088491574 0.073071755 -0.022981515 -0.1064082 0.057971057 -0.16190475 -0.16196859 0.085741006
0.03210301 0.103464715 -0.0018818427 -0.018562552 0.013911373 0.09704153 0.121726386 0.1340694
0.00054742035 -0.057487767 -0.09243744 -0.2555987 -0.15919511 0.0048336852 0.13987415 0.13399881
-0.033413183 0.07929246 0.12645136 0.15302472 0.08636639 0.07416004 0.005289728 -0.16843088
-0.06623136 -0.24958195 -0.21679755 -0.313755 -0.3418995 -0.0438299 -0.1777345 0.0266618
0.12272527 0.1513399 -0.1312985 0.19122368 0.19752291 0.1701359 -0.024296753 0.029484501
0.0070037274 0.08418447 0.0209139 0.0054988805 -0.033259425 -0.2161693 -0.29748762 -0.014949951
-0.0042685433 -0.21699087 -0.20315826 -0.071843036 -0.14624967 0.083186045 0.0365005 0.13212214
-0.09572941 -0.085582316 0.019186303 0.07253706 0.16801791 0.050789937 0.12651347 0.07067904
-0.1921005 -0.068976425 -0.021767812 -0.122546576 -0.2781142 -0.13586687 -0.07432085 -0.4192176
-0.24361654 -0.04730893 -0.051496916 -0.14304337 -0.20211852 -0.009637805 -0.06543088 -0.07153126
-0.13086978 -0.2699666 0.040889893 -0.018685997 -0.28706503 -0.42165938 -0.31458732 -0.12556115
0.044120636 -0.19663978 -0.16645482 0.030618709 -0.002841493 -0.041508734 -0.06412987 -0.13097705
-0.043364957 -0.15152995 0.049310084 0.053405568 -0.09155525 -0.056620356 -0.059252262 0.04811716
0.06336306 0.1294014 0.04302469 -0.07906396 0.095955454 0.01811752 0.05497945 -0.042785577
0.0573998 -0.23615864 -0.12600821 -0.0034676737 0.13861151 0.050154865 -0.06262756 0.083200395
0.11906046 0.12607643 0.11342674 0.08574637 -0.08696231 0.02520738 0.1408143 0.15234023
0.11902806 0.10539272 -0.043242097 -0.062029038 -0.10313537 0.026415093 -0.2237014 -0.20519911
-0.24050441 -0.0074265604 0.011626066 -0.14761505 0.10181664 0.08157091 -0.04610309 0.21097389
00000000: a8fd c43d a49e 9f3d e3aa 93bd bbf4 863d
00000010: f082 f13d a379 173e ed53 eb3d 6c13 853d
00000020: 4a93 cf3c b8c8 043e 9de2 b63d dcf5 9d3c
00000030: 86e0 f0bc cd99 f33c ea89 6e3e 9240 96be
00000040: 6dc3 8dbe a280 71be ad45 01be 8f63 243c
00000050: 5fa6 96bd 2301 1f3e 4348 e63d 0340 633d
00000060: 37d7 b43c 9943 f03c 7b8a c33b b1a2 dc3d
00000070: 4960 163d dc77 0bbe 46ff 123e cf23 313e
00000080: 7732 513e 8212 e03d 41d0 e6bb f3ad 153e
00000090: def9 723d 5e33 c9bd 4f3b 6dbe 377a f73d
000000a0: e1fc 663d 421e 5e3b 3909 b83c 8e6e e3bb
000000b0: c0fc babd 3e42 e1bd 5a71 5fbd 30d7 aebe
000000c0: 5d68 2bbe 2541 5abe 9c4f 1abe 5601 ebbc
000000d0: c658 20bc cd4d 8f3d 5784 84bd 24f1 bf3d
000000e0: 552a 4bbd 22bc b4bd 35a2 b4bb 68e2 e2bd
000000f0: f0fb b73d 76ec 44bb 4084 01be 12b9 1e3d
00000100: cb2b 993c 484c 43be 4a1c df3d 3b39 b43d
00000110: d0b6 073e 208a 113e a3d7 9e3c 8356 ec3c
00000120: 73e5 47bd 50ad dfbd 1849 dabd bf8c 77be
00000130: 7acd b4be 8b35 4dbe ebaa abbd 39cc 2abe
00000140: d92e bf3d 9af6 5dbe 74d7 a0bd 0987 dcbc
00000150: bc8a fb3c 58f0 783c b961 acbd 0b47 373d
00000160: e5df 253e fd82 c73d f027 0a3e eda4 dc3c
00000170: f16f a43d d1e3 0f3d a154 4bbc 552d adbd
00000180: c3fa 24be cc9a a0bc 8233 16be 94cc 9b3d
00000190: 5b9f 29be 7929 14bd 4efd 203e b588 343d
000001a0: 123b b53d a5a6 953d bb43 bcbc 8bec d9bd
000001b0: 0f73 6d3d 5cca 25be 18db 25be fb98 af3d
000001c0: 727e 033d 4fe5 d33d 2aa8 f6ba 7e10 98bc
000001d0: 87ec 633c b6bd c63d af4b f93d 7d49 093e
000001e0: c280 0f3a 4b78 6bbd d74f bdbd d5dd 82be
000001f0: 0b04 23be e463 9e3b 2b3b 0f3e fc36 093e
00000200: 43dc 08bd 1664 a23d 777c 013e 83b2 1c3e
00000210: dde0 b03d 38e1 973d 7455 ad3b 2579 2cbe
00000220: 4fa4 87bd 6992 7fbe 2d00 5ebe 7fa4 a0be
00000230: 740d afbe fb86 33bd 0800 36be d969 da3c
00000240: 6357 fb3d d9f8 1a3e 1d73 06be 24d0 433e
00000250: 7243 4a3e 1b38 2e3e fc09 c7bc 7b89 f13c
00000260: 867f e53b e868 ac3d a153 ab3c f42f b43b
00000270: 093b 08bd 7c5b 5dbe 4c50 98be a4f0 74bc
00000280: 23df 8bbb db32 5ebe b808 50be 7122 93bd
00000290: 79c2 15be 725d aa3d 8c81 153d 074b 073e
000002a0: c80d c4bd c845 afbd 982c 9d3c 4f8e 943d
000002b0: e30c 2c3e 1c09 503d bf8c 013e 2cc0 903d
000002c0: feb5 44be 8343 8dbd 6952 b2bc b3f9 fabd
000002d0: fc64 8ebe af20 0bbe 8835 98bd b0a3 d6be
000002e0: 9d76 79be 02c7 41bd 6eee 52bd f679 12be
000002f0: 28f8 4ebe e2e7 1dbc a000 86bd fb7e 92bd
00000300: ba02 06be 1039 8abe 297c 273d 6013 99bc
00000310: 30fa 92be bde3 d7be 9711 a1be 1a93 00be
00000320: d7b7 343d f05b 49be 2273 2abe 16d4 fa3c
00000330: 5838 3abb 1005 2abd 8556 83bd d91e 06be
00000340: 749f 31bd ab2a 1bbe 5ff9 493d ccbf 5a3d
00000350: 5281 bbbd bfea 67bd 80b2 72bd 8016 453d
00000360: 7ec4 813d cd81 043e a83a 303d 49ec a1bd
00000370: 4b84 c43d 316b 943c 2232 613d ee3f 2fbd
00000380: 0d1c 6b3d 92d3 71be 4c08 01be e941 63bb
00000390: 2df0 0d3e 306f 4d3d e142 80bd f864 aa3d
000003a0: f8d5 f33d 2e1a 013e 474c e83d cb9b af3d
000003b0: 4c19 b2bd b57f ce3c a031 103e 14ff 1b3e
000003c0: fcc4 f33d 23d8 d73d a01e 31bd 2912 7ebd
000003d0: a338 d3bd 7764 d83c fb11 65be b71f 52be
000003e0: ca46 76be 815a f3bb 417b 3e3c 6628 17be
000003f0: 3e85 d03d a60e a73d 98d6 3cbd 8a09 583e

bias f4 [64]
-0.018291483 -0.04637302 -0.08491478 0.002226047 -0.071192585 0.06550803 -0.041005004 -0.0653911
-0.06494424 0.034784764 -0.030681722 -0.10131415 -0.0415097 -0.07481385 -0.0062977653 -0.11597844
-0.026908375 -0.027011925 -0.048867993 -0.012044953 -0.0524549 -0.06125363 -0.13743244 0.0038955796
-0.12566249 -0.06262038 0.009490923 -0.12634195 -0.09298831 -0.053500615 -0.007133728 -0.0949492
-0.07486017 0.0073500094 0.042937133 0.0005865671 0.00091507216 -0.029912092 -0.06922985 -0.073601626
-0.10698469 -0.04400471 -0.06135593 0.07850096 -0.013057047 -0.0778999 -0.048507635 -0.0747508
-0.049568754 -0.047183573 -0.11218894 -0.056003485 -0.03229252 -0.00757105 -0.037396878 -0.03405547
-0.00033138826 0.015374631 0.015698962 -0.058588825 0.0037010876 -0.027703244 0.031882923 -0.03838786
00000000: 05d8 95bc a3f1 3dbd cde7 adbd dfe2 113b
00000010: 6bcd 91bd 1329 863d ddf4 27bd c5eb 85bd
00000020: 7c01 85bd 787a 0e3d 3c58 fbbc cb7d cfbd
00000030: 1306 2abd 0138 99bd 7c5d cebb 1b86 edbd
00000040: f46e dcbc 1d48 ddbc ce29 48bd 3258 45bc
00000050: f3da 56bd 16e5 7abd 17bb 0cbe fb4c 7f3b
00000060: abad 00be 1d3f 80bd d17f 1b3c c95f 01be
00000070: a870 bebd 7623 5bbd 0cc2 e9bb ba74 c2bd
00000080: 4a50 99bd 59d8 f03b d9de 2f3d dac3 193a
00000090: 74e1 6f3a 340a f5bc 61c8 8dbd 73bc 96bd
000000a0: ca1a dbbd 483e 34bd 5b50 7bbd 1cc5 a03d
000000b0: 39ed 55bc fc89 9fbd f1af 46bd f316 99bd
000000c0: 9b08 4bbd 9043 41bd 51c3 e5bd e963 65bd
000000d0: 2945 04bd 9216 f8bb 782d 19bd c07d 0bbd
000000e0: 2ebe adb9 e0e5 7b3c 1c9b 803c d6fa 6fbd
000000f0: f28d 723b eaf1 e2bc ab97 023d 973c 1dbd

weight f4 [128, 64, 3, 3]
-0.013326149 -0.05330364 -0.049472604 -0.028086228 -0.019996986 0.0076633324 -0.0030672033 0.011371917
0.0011411223 -0.036532383 0.008207302 -0.013494042 -0.0015424697 -0.019559883 -0.044998296 -0.065509856
-0.005480712 -0.056371044 -0.028027548 -0.0026842623 -0.049038157 0.0025074424 -0.03726613 -0.04579154
0.005803632 -0.053849414 0.0056396327 0.023999285 -0.014297293 -0.0025621376 -0.029396852 4.836653e-05
-0.048627682 -0.008682063 0.011849355 -0.036349483 -0.032506514 0.021047352 -0.032779958 -0.021032892
-0.00032891496 -0.043520015 -0.0036739074 -0.017062787 -0.03863939 -0.031559456 0.02092648 -0.02824092
0.009753827 0.018360835 -0.01831739 -0.03461322 -0.030747024 0.004345024 0.0032902586 -0.013338279
-0.059743326 -0.027226618 -0.030652976 -0.025891462 -0.010780379 -0.024749776 -0.03630429 -0.0030369617
-0.027058762 -0.0027483902 0.018008176 0.012906115 -0.028050689 -0.026212404 -0.02470363 -0.03211774
-0.0036276511 0.017097495 -0.03918569 -0.0035418062 -0.0055285785 -0.015785327 -0.022255978 0.0032184045
0.0149111375 0.005121595 0.019542716 0.011446987 0.007313194 -0.016563676 -0.052051637 0.02140571
-0.01599595 -0.030695062 -0.051914804 -0.03206358 -0.01285191 -0.041744083 0.0075468677 0.013278245
-0.02128722 -0.034930464 -0.037473593 -0.0032423225 0.0056945602 -0.05064107 0.011376667 0.017240733
-0.039056234 0.023827877 -0.0011938843 -0.055420224 0.008804663 0.03163358 0.016866697 -0.035497624
0.00933188 -0.013408563 -0.03466618 -0.02013467 -0.027547473 0.0067298184 -0.024494763 -0.025765393
0.033387117 -0.005681541 0.013240228 -0.00828755 0.016898807 0.004866611 0.009653265 -0.028610848
0.0067950822 0.04345695 0.019174231 0.0074837315 -0.044952203 0.011962862 -0.014313316 -0.00838009
0.021024061 -0.04988609 -0.029500265 -0.039086748 -0.058468 -0.013378825 0.029716158 -0.018938648
-0.02196364 -0.046223033 -0.046185747 0.016416753 0.011949509 -0.012625753 -0.0052360357 0.016487671
0.0036539107 -0.0061096195 0.025545893 0.0111665195 0.026641399 0.006500269 0.02225226 0.03217176
0.020432636 -0.049325168 -0.05423872 0.00934893 -0.03568186 -0.047695804 -0.014378125 -0.007796734
-0.050368194 -0.034323305 -0.00023171208 0.019644441 -0.026500506 0.015636778 0.011092446 0.008677913
-0.056605503 -0.015514245 0.026705628 -0.029241623 -0.040815562 -0.04538266 -0.012740811 -0.0029067413
-0.015575451 -0.026447998 0.014165538 0.01643552 -0.0022677118 -0.023138344 -0.03750711 -0.013157126
-0.032634716 0.023896579 0.028453674 -0.005735038 0.012798593 0.021761078 0.009825588 0.03673286
-0.02639934 -0.031574 -0.011937202 -0.039662804 0.0036011713 -0.025093095 0.011257896 0.031120095
0.030888299 -0.045073345 -0.016187673 -0.009026486 -0.028453069 0.0191666 -0.03458754 -0.03162329
-0.038964175 -0.0013847282 -0.035613395 -0.04697874 -0.020404857 0.0055116583 0.014092495 -0.02021094
-0.047145423 0.02170465 -0.027658395 0.012543087 -0.043260206 -0.00039190368 -0.038532004 -0.009162207
0.007013164 -0.008640005 0.024911461 0.001959955 -0.04653746 -0.0134110125 -0.049232148 -0.023499617
-0.035108496 0.0036227321 -0.004790376 -0.02531199 -0.043480583 -0.051482335 -0.021982482 -0.0004763631
0.0001139756 -0.04720018 0.011531797 0.0039668535 -0.015384731 -0.02618891 -0.006640229 -0.04991352
00000000: ec55 5abc eb54 5abd c9a3 4abd 1715 e6bc
00000010: b8d0 a3bc b11c fb3b 2203 49bb 4751 3a3c
00000020: b691 953a fba2 15bd eb77 063c 1d16 5dbc
00000030: b22c caba 0c3c a0bc 2250 38bd 082a 86bd
00000040: 8b97 b3bb 53e5 66bd 079a e5bc 73ea 2fbb
00000050: 3cdc 48bd e753 243b 5fa4 18bd e98f 3bbd
00000060: 652c be3b 3491 5cbd abcc b83b 269a c43c
00000070: 313f 6abc 89e9 27bb abd1 f0bc 2bdd 4a38
00000080: d22d 47bd 363f 0ebc cc23 423c 32e3 14bd
00000090: 8d25 05bd 7f6b ac3c 4744 06bd 2c4d acbc
000000a0: 3872 acb9 0b42 32bd f0c5 70bb 42c7 8bbc
000000b0: 5644 1ebd 7d44 01bd 026e ab3c 8059 e7bc
000000c0: 84ce 1f3c 7669 963c 5a0e 96bc 97c6 0dbd
000000d0: 2fe1 fbbc b460 8e3b 61a1 573b cc88 5abc
000000e0: 6bb5 74bd 5b0a dfbc f31b fbbc 551a d4bc
000000f0: 30a0 30bc 0bc0 cabc cfb3 14bd c307 47bb
00000100: 56aa ddbc 561e 34bb e285 933c 2b74 533c
00000110: 8fca e5bc 65bb d6bc 445f cabc e48d 03bd
00000120: e3bd 6dbb 0c10 8c3c 2d81 20bd a61d 68bb
00000130: 1429 b5bb 3b50 81bc 2b52 b6bc deeb 523b
00000140: d84d 743c 0ed3 a73b 0c18 a03c 258c 3b3c
00000150: 85a3 ef3b 8cb0 87bc 1934 55bd 075b af3c
00000160: f009 83bc 3674 fbbc 9ea4 54bd 1a55 03bd
00000170: d190 52bc d8fb 2abd b74b f73b ff8c 593c
00000180: 8962 aebc 3f13 0fbd e97d 19bd 257d 54bb
00000190: 6f99 ba3b 036d 4fbd 3365 3a3c 703c 8d3c
000001a0: 6ef9 1fbd ae32 c33c 1c7c 9cba 5100 63bd
000001b0: 6f41 103c 3692 013d 072c 8a3c f565 11bd
000001c0: bee4 183c 97af 5bbc 20fe 0dbd 77f1 a4bc
000001d0: 3dab e1bc cf85 dc3b 3ea9 c8bc f211 d3bc
000001e0: eec0 083d 382c babb 8bed 583c 81c8 07bc
000001f0: 5e6f 8a3c 1878 9f3b ba28 1e3c 4c61 eabc
00000200: 48a9 de3b eaff 313d 4713 9d3c 173a f53b
00000210: cd1f 38bd e1ff 433c 6682 6abc a54c 09bc
00000220: a73a ac3c 5b55 4cbd 8aaa f1bc 6d19 20bd
00000230: 247c 6fbd dc32 5bbc 4d6f f33c 3925 9bbc
00000240: 17ed b3bc 5d54 3dbd 442d 3dbd 6d7c 863c
00000250: e0c7 433c 3fdc 4ebc 0d93 abbb 2711 873c
00000260: 7376 6f3b 3433 c8bb 9f45 d13c c7f3 363c
00000270: 103f da3c 3500 d53b 5f4a b63c 89c6 033d
00000280: 5862 a73c 3009 4abd 6c29 5ebd 412c 193c
00000290: 2427 12bd ad5c 43bd 3a92 6bbc bf7b ffbb
000002a0: e14e 4ebd 9896 0cbd bdf7 72b9 61ed a03c
000002b0: 9717 d9bc b318 803c 17bd 353c ce2d 0e3c
000002c0: 2cdb 67bd 762f 7ebc c3c5 da3c 218c efbc
000002d0: 382e 27bd 2be3 39bd d6be 50bc 077f 3ebb
000002e0: 2d30 7fbc 79a9 d8bc 9316 683c c9a3 863c
000002f0: e49d 14bb a08c bdbc 0ea1 19bd fc90 57bc
00000300: fbab 05bd c2c2 c33c ae17 e93c fcec bbbb
00000310: 31b1 513c 4a44 b23c 81fb 203c 3275 163d
00000320: 6e43 d8bc bd53 01bd 4194 43bc 7775 22bd
00000330: a101 6c3b 0990 cdbc 0a73 383c 92ef fe3c
00000340: 7509 fd3c d49e 38bd 039c 84bc d4e3 13bc
00000350: 6916 e9bc 4603 9d3c aaab 0dbd 6c87 01bd
00000360: e698 1fbd c57f b5ba 5adf 11bd c76c 40bd
00000370: 1628 a7bc 249b b43b 35e4 663c 6a91 a5bc
00000380: 8f1b 41bd f3cd b13c dc93 e2bc 8581 4d3c
00000390: 9d31 31bd 6c78 cdb9 bcd3 1dbd 151d 16bc
000003a0: afce e53b cf8e 0dbc 1f13 cc3c 9772 003b
000003b0: 109e 3ebd ddb9 5bbc a6a7 49bd 4582 c0bc
000003c0: edcd 0fbd 5c6b 6d3b 96f8 9cbb 175b cfbc
000003d0: b218 32bd 24df 52bd 9b14 b4bc 5fc0 f9b9
000003e0: 2f06 ef38 fa54 41bd ddef 3c3c 61fc 813b
000003f0: 3d10 7cbc 208a d6bc 4796 d9bb 1f72 4cbd

bias f4 [128]
-0.02515776 -0.024077851 -0.03925886 -0.043674063 -0.08102337 0.038951285 -0.06689323 -0.0413077
-0.043278694 -0.08200696 -0.03579147 0.013857228 -0.10369236 0.0076200613 -0.0045279115 -0.05773197
-0.021499844 0.00291751 -0.08491592 -0.09625241 -0.1118599 -0.076202676 -0.1031323 -0.004183699
0.022883505 -0.09864092 -0.06578077 -0.0118851485 -0.022960478 -0.025408521 -0.06646867 -0.080968186
-0.018085718 -0.017783448 -0.03654246 -0.029431118 -0.037432153 -0.0457154 0.018692836 -0.012878212
-0.07030302 -0.11809928 -0.01678649 -0.07076379 -0.11890148 -0.0912717 -0.06775494 -0.068815075
-0.043623324 -0.042950667 -0.05202602 -0.06563474 -0.10620201 -0.022395404 -0.09179109 -0.0847529
0.00782012 -0.016167829 -0.09167261 -0.027219212 -0.027835408 -0.094278164 -0.07897029 -0.06657916
-0.055632308 -0.055733986 -0.08689351 0.0074630026 -0.033326294 0.0104859965 -0.12039804 -0.07697843
-0.030763412 -0.03887885 0.019462451 -0.11020999 0.0021430703 -0.12908892 -0.032118194 0.0037742446
-0.024077784 0.02276745 -0.0618369 -0.12041202 -0.056888085 -0.03693557 -0.05640235 0.029176967
0.012695394 -0.0222213 -0.04497956 -0.045205083 0.012393985 -0.04331318 -0.01938523 0.017537626
0.008643965 -0.076210745 -0.08245559 0.033530902 0.0009010224 -0.022440817 -0.014189262 -0.044690248
-0.09735866 -0.08006121 -0.15526158 -0.08858949 0.0036350158 -0.09513486 -0.056514777 -0.022611199
-0.0064308643 -0.032402575 -0.06726633 -0.0012319057 -0.08238955 -0.09236724 -0.03837248 -0.09916006
-0.047535736 -0.08730693 -0.037110627 -0.020968452 -0.030567694 -0.10858271 -0.03540246 -0.021753961
00000000: a617 cebc ea3e c5bc e6cd 20bd 93e3 32bd
00000010: 95ef a5bd 628b 1f3d 51ff 88bd 4332 29bd
00000020: 0045 31bd 44f3 a7bd 149a 12bd 6d09 633c
00000030: a95c d4bd b5b1 f93b e05e 94bb 5c78 6cbd
00000040: 7120 b0bc b233 3f3b 66e8 adbd fc1f c5bd
00000050: ce16 e5bd 2610 9cbd 0737 d3bd 6917 89bb
00000060: 3076 bb3c 4004 cabd 11b8 86bd edb9 42bc
00000070: 9d17 bcbc 8825 d0bc ba20 88bd a6d2 a5bd
00000080: 8028 94bc 98ae 91bc 8cad 15bd 8719 f1bc
00000090: 7552 19bd 1240 3bbd b821 993c 23ff 52bc
000000a0: 08fb 8fbd 09de f1bd d283 89bc 9bec 90bd
000000b0: 9f82 f3bd a8ec babd 1ac3 8abd ebee 8cbd
000000c0: 5fae 32bd 0aed 2fbd 3c19 55bd 826b 86bd
000000d0: 7080 d9bd 9176 b7bc f8fc bbbd ee92 adbd
000000e0: f61f 003c 6572 84bc d9be bbbd d3fa debc
000000f0: 1507 e4bc e914 c1bd 2dbb a1bd a85a 88bd
00000100: b4de 63bd 5249 64bd 39f5 b1bd 348c f43b
00000110: 2781 08bd 75cd 2b3c 3f93 f6bd dea6 9dbd
00000120: 8d03 fcbc 6e3f 1fbd b86f 9f3c c6b5 e1bd
00000130: c172 0c3b e32f 04be 5e8e 03bd 5159 773b
00000140: c63e c5bc ce82 ba3c b048 7dbd 949a f6bd
00000150: 7b03 69bd c149 17bd 2706 67bd 8904 ef3c
00000160: 5800 503c 7209 b6bc 7d3c 38bd f728 39bd
00000170: 2410 4b3c 2969 31bd c6cd 9ebc 11ab 8f3c
00000180: 6b9f 0d3c 6114 9cbd 7ade a8bd b357 093d
00000190: 9732 6c3a ced5 b7bc 147a 68bc 1f0d 37bd
000001a0: fa63 c7bd 22f7 a3bd e4fc 1ebe 686e b5bd
000001b0: 7239 6e3b 11d6 c2bd 0a7c 67bd 1f3b b9bc
000001c0: 00ba d2bb 90b8 04bd eec2 89bd e577 a1ba
000001d0: dabb a8bd 092b bdbd 762c 1dbd 6e14 cbbd
000001e0: d5b4 42bd facd b2bd 5001 18bd 08c6 abbc
000001f0: 1a69 fabc 9d60 debd 2b02 11bd 5d35 b2bc

weight f4 [10, 128]
0.047090948 -0.062702194 0.1738367 -0.25709546 -0.032255754 -0.0557252 -0.14645594 -0.028480869
0.04142949 -0.15604831 0.083312936 0.0103047015 0.058331635 -0.06701586 0.1351018 -0.07035593
-0.2771816 -0.15597975 -0.06586564 -0.20389864 0.10501379 -0.13098982 0.06286596 0.018104075
-0.2576445 -0.064986676 -0.02938116 -0.44909295 0.14125682 -0.065834396 0.038945377 -0.18418503
-0.09185587 -0.045562357 0.1115344 0.025611991 -0.0060923593 0.019122617 -0.29171482 0.15332806
-0.04796617 -0.13152248 0.02037387 -0.054275647 0.003210182 0.06581807 -0.2763821 -0.2849749
0.11791986 -0.16707511 -0.048789226 0.077601425 0.109159194 -0.07393934 -0.024371613 0.09709026
0.077493034 0.137455 -0.118094444 -0.07942087 0.11596548 -0.056616616 -0.048430465 -0.0025272681
-0.27622816 -0.009286885 0.13365027 -0.05691132 0.0880384 0.12959905 -0.103048205 0.04769639
-0.22354366 -0.055263095 -0.0139543405 -0.04814584 -0.22235695 -0.14068991 -0.25832617 -0.26615658
-0.014817536 -0.14460407 -0.14457889 0.14170054 0.028387057 -0.0050642905 0.10846095 -0.13547672
-0.27434012 -0.054064482 -0.12744322 -0.014337024 -0.03110299 -0.1700585 0.08454134 0.1232624
0.037673477 -0.054988153 -0.05357498 0.091571525 -0.011732626 0.09785473 -0.01566083 -0.22457945
-0.30712613 -0.07095219 0.072246835 -0.33891204 0.10404233 -0.0891178 -0.021287365 0.09003518
-0.021457821 0.058985695 0.0940646 0.15661073 -0.17591895 -0.09710146 -0.2998613 0.13215186
0.1002679 -0.0626993 -0.11015194 0.1388852 -0.026175212 0.053958703 -0.156194 -0.12544525
0.064835116 0.11105761 -0.08166906 0.08310722 -0.26062152 0.17010632 -0.27172667 -0.056136042
0.15669462 -0.081758216 -0.18143864 0.10582609 0.08274987 -0.07462815 -0.23373356 -0.23255487
0.12222708 -0.21773596 -0.039420947 -0.11044991 -0.3171643 -0.08294097 0.07306131 0.07773107
0.20121627 -0.18308228 -0.08092447 0.113658704 -0.21122064 -0.07188415 -0.003404984 -0.114249304
-0.089327246 -0.024048263 -0.2044275 -0.038289387 -0.13182124 -0.04873767 -0.315157 0.013503765
-0.055056874 0.076321244 0.07666221 -0.092481025 0.04366052 0.12392225 -0.18444586 0.01851087
-0.15717119 -0.27222788 -0.055373944 -0.16492873 -0.055060674 -0.043351036 0.07249764 -0.33310014
-0.002415776 0.107648924 -0.121750936 -0.081180185 -0.2735546 -0.3013869 0.07720623 -0.07616459
0.049295142 0.08219361 -0.14476937 0.082048126 0.06987173 0.137571 -0.0144538 -0.10076905
0.022886686 0.0022707183 0.013878114 -0.07678504 0.06653098 0.12462658 -0.13162458 0.116598286
-0.025180805 -0.3222414 0.107497275 -0.31055126 -0.19452229 0.034876827 -0.37072337 0.08141012
-0.22144374 -0.01167734 -0.100806095 -0.08526395 -0.011285226 -0.060403794 0.06537195 -0.23335414
-0.28473595 0.12207155 -0.11077094 0.09905455 -0.31010267 -0.13484605 -0.06363787 -0.1921472
-7.973925e-06 0.029006744 -0.06940388 -0.028091772 -0.06949642 -0.18327408 -0.4004793 0.18814383
-0.04190511 0.010049547 -0.06859377 -0.50950766 -0.20635554 0.12326326 0.054134365 -0.44842848
-0.092198506 -0.13282911 0.14762512 0.08714813 -0.039905243 -0.06842422 -0.03195642 0.1481271
00000000: 70e2 403d 026a 80bd 3f02 323e 04a2 83be
00000010: 9c1e 04bd 1b40 64bd 8cf8 15be b650 e9bc
00000020: f8b1 293d 21cb 1fbe f99f aa3d 0dd5 283c
00000030: 27ed 6e3d 9c3f 89bd 2058 0a3e c516 90bd
00000040: bfea 8dbe 28b9 1fbe 91e4 86bd ceca 50be
00000050: 7811 d73d 3222 06be debf 803d ff4e 943c
00000060: fbe9 83be bc17 85bd c2b0 f0bc 83ef e5be
00000070: a1a5 103e 2fd4 86bd 3085 1f3d 009b 3cbe
00000080: ee1e bcbd 989f 3abd 266c e43d 3dd0 d13c
00000090: 6aa2 c7bb 09a7 9c3c a55b 95be 0802 1d3e
000000a0: 2d78 44bd d4ad 06be 1ae7 a63c 2450 5ebd
000000b0: eb61 523b a0cb 863d f481 8dbe 3be8 91be
000000c0: f87f f13d bd15 2bbe 36d7 47bd 7fed 9e3d
000000d0: db8e df3d 826d 97bd faa6 c7bc 42d7 c63d
000000e0: abb4 9e3d 01c1 0c3e 80db f1bd 69a7 a2bd
000000f0: 4f7f ed3d d3e6 67bd 065f 46bd 86a0 25bb
00000100: c76d 8dbe 0528 18bc 9edb 083e d81b 69bd
00000110: 7a4d b43d 9db5 043e f00a d3bd 4a5d 433d
00000120: a1e8 64be 8e5b 62bd bfa0 64bc 9334 45bd
00000130: 8ab1 63be 0411 10be 5443 84be ad45 88be
00000140: 40c5 72bc 1713 14be 7d0c 14be f219 113e
00000150: f98b e83c 59f2 a5bb c620 de3d 69ba 0abe
00000160: 4f76 8cbe b872 5dbd 7a80 02be d6e5 6abc
00000170: b3cb febc d123 2ebe 0324 ad3d ff70 fc3d
00000180: 814f 1a3d 423b 61bd 7071 5bbd da89 bb3d
00000190: 333a 40bc 1068 c83d 244b 80bc 28f8 65be
000001a0: a33f 9dbe 624f 91bd 26f6 933d e185 adbe
000001b0: 2514 d53d 6583 b6bd d762 aebc 5d64 b83d
000001c0: 50c8 afbc fc9a 713d f1a4 c03d 905e 203e
000001d0: 1924 34be 21dd c6bd 6c87 99be d152 073e
000001e0: 4259 cd3d 7e68 80bd 5797 e1bd ec37 0e3e
000001f0: 666d d6bc cd03 5d3d 52f1 1fbe b874 00be
00000200: 46c8 843d 2c72 e33d 1c42 a7bd 1e34 aa3d
00000210: 2f70 85be 5a30 2e3e c21f 8bbe e8ee 65bd
00000220: 8e74 203e da70 a7bd 0dcb 39be 59bb d83d
00000230: c478 a93d a5d6 98bd da57 6fbe dd22 6ebe
00000240: 3152 fa3d 2df6 5ebe dc77 21bd 9033 e2bd
00000250: 5c63 a2be f5dc a9bd 2ba1 953d 7831 9f3d
00000260: a30b 4e3e ec79 3bbe bbbb a5bd e5c5 e83d
00000270: 394a 58be ff37 93bd 2726 5fbb 8afb e9bd
00000280: 34f1 b6bd dd00 c5bc 7155 51be 55d5 1cbd
00000290: 26fc 06be 27a1 47bd 425c a1be e53e 5d3c
000002a0: 5183 61bd 504e 9c3d 1401 9d3d b166 bdbd
000002b0: 60d5 323d f3ca fd3d 60df 3cbe 1ca4 973c
000002c0: 7cf1 20be 7461 8bbe cacf 62bd 14e3 28be
000002d0: 4d87 61bd db90 31bd a579 943d 1a8c aabe
000002e0: ff51 1ebb 0a77 dc3d 8e58 f9bd cc41 a6bd
000002f0: 590f 8cbe 624f 9abe 4d1e 9e3d 2efc 9bbd
00000300: b4e9 493d 2055 a83d 6c3e 14be d908 a83d
00000310: e918 8f3d 6adf 0c3e a2cf 6cbc 0160 cebd
00000320: dc7c bb3c 55d0 143b 0761 633c 7a41 9dbd
00000330: 6541 883d 383c ff3d 98c8 06be 15cb ee3d
00000340: fa47 cebc d3fc a4be 8827 dc3d 9300 9fbe
00000350: da30 47be 01db 0e3d 74cf bdbe 59ba a63d
00000360: 26c2 62be 5052 3fbc 6d73 cebd de9e aebd
00000370: abe5 38bc f869 77bd bbe1 853d 63f4 6ebe
00000380: e9c8 91be a600 fa3d e0db e2bd 1ddd ca3d
00000390: c7c5 9ebe 1515 0abe 9254 82bd 3cc2 44be
000003a0: bfc7 05b7 8d9f ed3c 9f23 8ebd b720 e6bc
000003b0: 2454 8ebd 33ac 3bbe 9f0b cdbe c7a8 403e
000003c0: b1a4 2bbd dba6 243c e47a 8cbd 186f 02bf
000003d0: de4e 53be 7371 fc3d ffbb 5d3d 6b98 e5be
000003e0: 92d2 bcbd 5b04 08be 0a2b 173e b87a b23d
000003f0: ae73 23bd ff21 8cbd bce4 02bd a1ae 173e

bias f4 [10]
0.27114308 0.25999442 -0.43357107 0.041922674 0.04723613 -0.00018938049 -0.05827428 0.07514464
0.11433466 -0.24833766
00000000: 44d3 8a3e fd1d 853e 07fd ddbe 1cb7 2b3d
00000010: ac7a 413d 7094 46b9 03b1 6ebd 6fe5 993d
00000020: 4a28 ea3d 3a4c 7ebe
